data.pth (torch, 5418 bytes, 6 tensors)

l1.weight f4 [8, 54]
-0.18106805 0.7302045 -0.32400432 0.3534928 0.15595448 0.06803139 -0.3121837 -0.2244592
-0.36942387 -0.28743684 0.3552673 0.46120694 0.050824318 0.39823905 0.64284986 0.24104805
0.4231971 0.0980375 -0.09190093 0.7282882 -0.12497212 0.6648844 0.7000859 0.52609044
0.28150102 0.41554093 -0.2767228 0.78198254 -0.22177356 0.52280253 0.15611 0.32534838
-0.13718967 -0.34265888 0.7634284 0.2500168 -0.2245779 -0.40243095 -0.2610688 -0.27479962
0.14176278 -0.36373883 0.33118325 0.71462053 -0.028296575 0.78775483 -0.57225806 -0.21361272
0.20773485 -0.30380672 0.4089825 -0.2979998 -0.09618271 -0.046819784 -0.16728024 0.30723566
0.43512332 -0.17421691 -0.057274763 0.7152539 0.3489848 0.46703333 0.38394564 0.4005853
-0.18939053 0.64454514 0.13917786 0.5458451 0.37402144 0.44702232 -0.35894606 0.77207166
-0.2890975 -0.54816175 -0.30717605 -0.5470141 -0.5485234 -0.31118128 0.4903002 -0.19719331
-0.16937345 0.40893206 -0.01242135 0.46470797 0.33695364 0.5268422 -0.15677449 0.44576162
0.28701845 0.23698813 0.023239288 0.27778643 0.38710123 0.40944368 0.40638965 -0.3990482
0.6332756 0.2804315 0.7316054 0.39405647 -0.6428029 -0.07379128 -0.17685017 -0.25743562
0.2697132 -0.30684587 0.29501054 0.094932996 0.7255334 0.12895982 -0.2802052 -0.04616441
-0.31948292 0.7291351 -0.1667498 -0.21617843 -0.39848408 -0.21700574 -0.043923542 -0.09002905
-0.3369154 -0.18278074 -0.18183859 -0.1930973 -0.055842243 0.80338055 0.004028609 -0.27844363
0.41158187 -0.1822683 -0.23229209 -0.028289631 -0.109732896 0.06727046 0.09438984 -0.4322531
0.04215864 -0.37513405 0.374507 -0.2240958 0.39787495 -0.3979861 -0.20048109 -0.09734486
-0.14997025 -0.297624 -0.12974486 -0.15224552 0.3469007 -0.010395107 -0.090092786 -0.13682878
-0.2450269 -0.26632607 0.9533869 0.5791136 0.06577089 -0.08698138 0.03207829 -0.0020344688
-0.21181801 0.24557647 -0.0233217 -0.24680682 -0.100813836 0.27475238 0.31396562 -0.62314713
-0.10624769 -0.2750422 -0.26068005 -0.10478915 0.43040487 0.45730612 0.3472288 0.43125135
-0.13498913 0.29604596 0.63026494 -0.6095431 0.29274866 0.54615444 -0.033037685 0.7008917
0.7307773 0.5288221 0.22325815 0.3796832 0.18411575 -0.2804382 0.13574636 -0.13546564
-0.37090334 0.18528804 0.28625053 -0.1900463 -0.08438069 0.30173755 0.20157516 -0.30690742
-0.07404979 -0.08170975 -0.35818303 0.16694471 0.26457813 -0.1738806 0.25124756 -0.20118593
-0.23024946 0.11144447 0.3512615 0.24156539 0.3913331 0.29562032 -0.10036082 0.20434524
0.48169386 -0.14754838 0.43100724 -0.08802835 0.1647238 0.59998435 0.32979408 0.33023065
0.46147612 0.30646387 -0.39528415 0.7782626 0.20681779 0.77533185 -0.15493888 0.515772
-0.24072342 0.6217666 -0.3093091 -0.6354344 0.25694698 -0.63550955 -0.63575685 0.0346491
0.48918268 -0.310768 -0.11018385 -0.2619453 0.011330312 -0.5262095 0.46004102 0.7689507
0.23561747 0.39673015 -0.07349518 0.5370362 -0.15666087 0.33425662 0.35099474 0.32738963
00000000: e769 39be afee 3a3f e5e3 a5be 02fd b43e
00000010: 88b2 1f3e 0b54 8b3d 8bd6 9fbe a2d8 65be
00000020: 2025 bdbe ec2a 93be 98e5 b53e 5123 ec3e
00000030: 292d 503d fde5 cb3e cf91 243f 4dd5 763e
00000040: 4aad d83e e3c7 c83d 8e36 bcbd 1871 3a3f
00000050: 62f1 ffbd dd35 2a3f d438 333f ddad 063f
00000060: e720 903e c8c1 d43e 9cae 8dbe 0230 483f
00000070: 9c18 63be 63d6 053f 4ddb 1f3e 1094 a63e
00000080: 737b 0cbe fc70 afbe 0b70 433f 3402 803e
00000090: c0f7 65be 6e0b cebe cfaa 85be 89b2 8cbe
000000a0: 432a 113e fa3b babe da90 a93e 5ff1 363f
000000b0: 38ce e7bc 4daa 493f 817f 12bf 4bbd 5abe
000000c0: 72b8 543e 8e8c 9bbe 2766 d13e 6e93 98be
000000d0: 71fb c4bd 1ac6 3fbd 834b 2bbe fe4d 9d3e
000000e0: 7cc8 de3e eb65 32be f198 6abd e11a 373f
000000f0: 23ae b23e fe1e ef3e 8694 c43e 8419 cd3e
00000100: 97ef 41be e900 253f a484 0e3e 81bc 0b3f
00000110: bd7f bf3e 1ce0 e43e c7c7 b7be 7da6 453f
00000120: 9604 94be 5454 0cbf 2e46 9dbe 1e09 0cbf
00000130: 086c 0cbf 2753 9fbe a108 fb3e 0bed 49be
00000140: 3c70 2dbe 8b5f d13e eb82 4bbc 34ee ed3e
00000150: 3085 ac3e 21df 063f 7e89 20be de3a e43e
00000160: 15f4 923e 04ad 723e 5260 be3c 063a 8e3e
00000170: 2232 c63e 9aa2 d13e 4e12 d03e 0c50 ccbe
00000180: 5a1e 223f b894 8f3e 7e4a 3b3f c5c1 c93e
00000190: bb8e 24bf e21f 97bd 3618 35be 9ace 83be
000001a0: d917 8a3e e71a 9dbe 9f0b 973e 3b6c c23d
000001b0: 8fbc 393f 0b0e 043e 0e77 8fbe e416 3dbd
000001c0: 4493 a3be 99a8 3a3f 76c0 2abe e15d 5dbe
000001d0: 1b06 ccbe c136 5ebe 2ce9 33bd 2761 b8bd
000001e0: 2d80 acbe e02a 3bbe e533 3abe 4cbb 45be
000001f0: d6ba 64bd 59aa 4d3f 6c02 843b 2a90 8ebe
00000200: dcba d23e 8ba4 3abe fadd 6dbe a8bf e7bc
00000210: a4bb e0bd 18c5 893d 764f c13d 4750 ddbe
00000220: 8aae 2c3d 9211 c0be 62bf bf3e 5f79 65be
00000230: 44b6 cb3e d6c4 cbbe ea4a 4dbe be5c c7bd
00000240: cd91 19be 2c62 98be d6db 04be 40e6 1bbe
00000250: f89c b13e 3d50 2abc 9182 b8bd d81c 0cbe
00000260: 55e8 7abe e45b 88be 2a11 743f ca40 143f
00000270: e3b2 863d 4b23 b2bd 8664 033d b954 05bb
00000280: d2e6 58be 6678 7b3e 260d bfbc edba 7cbe
00000290: 7c77 cebd 58ac 8c3e 1ac0 a03e 9286 1fbf
000002a0: 6498 d9bd 55d2 8cbe db77 85be b29b d6bd
000002b0: 075e dc3e 0724 ea3e f9c7 b13e facc dc3e
000002c0: 973a 0abe 5693 973e 0b59 213f 040b 1cbf
000002d0: 27e3 953e c7d0 0b3f 8652 07bd a36d 333f
000002e0: 3914 3b3f e360 073f c99d 643e d665 c23e
000002f0: d788 3c3e 9995 8fbe 1801 0b3e 81b7 0abe
00000300: 0be7 bdbe 26bc 3d3e 6e8f 923e 7f9b 42be
00000310: c8cf acbd 587d 9a3e b869 4e3e f822 9dbe
00000320: 6ba7 97bd 7157 a7bd c463 b7be 8ef3 2a3e
00000330: c976 873e c20d 32be 85a3 803e af03 4ebe
00000340: 84c6 6bbe 003d e43d 8cd8 b33e eb5c 773e
00000350: d05c c83e 8c5b 973e f989 cdbd e13f 513e
00000360: 94a0 f63e ec16 17be fbac dc3e 3548 b4bd
00000370: 5bad 283e 9398 193f c5da a83e fe13 a93e
00000380: 9946 ec3e d5e8 9c3e af62 cabe 383c 473f
00000390: 0bc8 533e 267c 463f 4ca8 1ebe a209 043f
000003a0: 3380 76be 192c 1f3f c35d 9ebe d4ab 22bf
000003b0: 8e8e 833e c1b0 22bf f6c0 22bf 37ec 0d3d
000003c0: 2776 fa3e fc1c 9fbe 12a8 e1bd b21d 86be
000003d0: c6a2 393c aab5 06bf 7f8a eb3e f4d9 443f
000003e0: b545 713e 3720 cb3e a484 96bd 347b 093f
000003f0: b56b 20be af23 ab3e 95b5 b33e 9d9f a73e

l1.bias f4 [8]
0.66272205 0.54825705 0.7700622 0.84649646 0.6355259 0.7220655 0.6572841 0.5349388
00000000: 27a8 293f 935a 0c3f cc22 453f feb3 583f
00000010: d3b1 223f 49d9 383f c543 283f c0f1 083f

l2.weight f4 [8, 8]
-0.7822004 0.65489405 -0.64735 -0.27466747 0.7912661 -0.7182045 0.2221131 0.036966905
0.3638942 -1.2300593 0.6712169 0.70502853 0.4651739 0.9706309 -1.2120863 0.26170188
-0.25778303 -0.37375998 -0.010399155 0.9107742 -0.21661606 -0.34854254 0.8113663 1.1793721
0.58544207 1.5520488 0.012941991 -0.5066716 0.9745956 0.009536937 1.027012 -0.71621054
-0.046927154 0.72176975 -0.9256674 0.69067657 0.9836448 -0.07358104 -0.4919443 -0.09023498
-0.082775086 0.14457478 1.282407 0.7756801 0.8442861 1.440274 -0.39941812 -0.6465372
1.566007 -0.2046081 -0.5797023 1.0993143 -0.79143786 0.5596452 0.03294779 0.16723739
0.094311416 -0.07499036 0.057671547 -0.015332043 -0.23057196 -0.223609 -0.04070118 -0.09618285
00000000: 493e 48bf 23a7 273f bbb8 25bf 37a1 8cbe
00000010: 6a90 4a3f 40dc 37bf 9e71 633e 9c6a 173d
00000020: 5750 ba3e 9572 9dbf dfd4 2b3f c07c 343f
00000030: 462b ee3e 447b 783f a525 9bbf cafd 853e
00000040: 23fc 83be 785d bfbe 3861 2abc 7f28 693f
00000050: 9ad0 5dbe 2b74 b2be b4b5 4f3f aaf5 963f
00000060: 88df 153f 89a9 c63f a50a 543c 3bb5 01bf
00000070: 197f 793f d040 1c3c 2175 833f 9359 37bf
00000080: b036 40bd e7c5 383f 8af8 6cbf 2ed0 303f
00000090: 25d0 7b3f a8b1 96bd 20e0 fbbe 1ecd b8bd
000000a0: fc85 a9bd 690b 143e ea25 a43f f992 463f
000000b0: 2223 583f e65a b83f 8880 ccbe 7683 25bf
000000c0: eb72 c83f c984 51be 5f67 14bf 55b6 8c3f
000000d0: ac9b 4abf e844 0f3f 43f4 063d 4740 2b3e
000000e0: 5826 c13d 8c94 99bd 0039 6c3d 4033 7bbc
000000f0: 0e1b 6cbe c2f9 64be 48b6 26bd 84fb c4bd

l2.bias f4 [8]
0.158408 0.18884873 0.83165485 0.43326762 -0.07399605 0.4785684 0.34505376 -0.2363801
00000000: b535 223e 9061 413e 55e7 543f 41d5 dd3e
00000010: 3e8b 97bd eb06 f53e e3aa b03e a00d 72be

l3.weight f4 [7, 8]
-0.48571333 0.01229042 -1.1378971 -0.27825326 0.7366273 0.057283517 0.261243 -0.07691592
-0.54765224 -0.78176135 -0.51119196 0.63874024 -1.152077 -1.1630182 0.5153825 0.05183971
-0.7978009 -1.0123612 -0.5234155 0.6514008 -1.156497 0.597499 -0.8244709 0.03653115
-0.6310996 0.35727122 -0.2276465 -1.0066212 -0.33006826 0.05685671 0.8746379 -0.12731054
-0.77403927 -1.2669766 0.7916946 -1.0149469 -1.0845671 -1.1447304 0.38457966 -0.10175222
0.8169053 -0.62352425 0.070076026 0.20277594 0.59662926 -0.7511185 -1.0320125 -0.3114412
-0.779612 0.8449522 -0.7958037 -0.7592854 -1.1779629 0.78347105 -1.3001183 0.11903244
00000000: 6baf f8be c25d 493c 9da6 91bf 3677 8ebe
00000010: 9b93 3c3f 1fa2 6a3d a4c1 853e 1886 9dbd
00000020: f032 0cbf 8321 48bf 7add 02bf 7b84 233f
00000030: 4277 93bf c8dd 94bf 1cf0 033f e055 543d
00000040: ae3c 4cbf 0d95 81bf 8ffe 05bf 34c2 263f
00000050: 1808 94bf b2f5 183f 8610 53bf b0a1 153d
00000060: be8f 21bf 41ec b63e 2a1c 69be f7d8 80bf
00000070: b5fe a8be 95e2 683d 45e8 5f3f b25d 02be
00000080: 7027 46bf 4a2c a2bf 7fac 4a3f c8e9 81bf
00000090: 18d3 8abf 8786 92bf a0e7 c43e 7863 d0bd
000000a0: b520 513f 499f 1fbf 0584 8f3d 7fa4 4f3e
000000b0: b2bc 183f 4d49 40bf fc18 84bf 3975 9fbe
000000c0: a794 47bf ca4e 583f cbb9 4bbf 8760 42bf
000000d0: 7dc7 96bf 8f91 483f 476a a6bf 48c7 f33d

l3.bias f4 [7]
-0.4640484 0.24185747 -0.083912365 0.30809015 -0.044597983 -0.08017079 0.25412938
00000000: c097 edbe 7ca9 773e 3fda abbd febd 9d3e
00000010: 60ac 36bd 9530 a4bd 3f1d 823e
