data.pth (torch, 7374 bytes, 10 tensors)

l1.weight f4 [8, 39]
0	0x3d7f33ef	0.062305387
1	0x3e6e5d1b	0.23277704
2	0x3ddc07d2	0.10743679
3	0x3e0df0fc	0.1386146
4	0x3e99ea4c	0.30061567
5	0xbd560073	-0.052246522
6	0x3d4a5741	0.049399618
7	0xbc817ea8	-0.015807465
8	0x3e3b8638	0.18312919
9	0x3c9922a7	0.018693281
10	0x3edf9b13	0.43673
11	0x3e1f065c	0.1552977
12	0x3e844c65	0.25839534
13	0x3e449c1f	0.1920018
14	0xbdb2c0c5	-0.08728174
15	0x3da860f7	0.082216196
16	0x3e8e95b8	0.278486
17	0x3e3aab5f	0.18229435
18	0x3e751ac7	0.23935996
19	0xbc602c90	-0.0136824995
20	0x3ed0709d	0.40710917
21	0xbe6b04cc	-0.22951049
22	0x3dcb5146	0.09927611
23	0x3ea76838	0.326967
24	0x3ce40a32	0.027836893
25	0x3eb19b8d	0.34688988
26	0x3de11b33	0.10991516
27	0x3e885cd6	0.26633328
28	0xbee544f9	-0.44779184
29	0xbe51a9b2	-0.2047489
30	0xbd0b0e34	-0.033949092
31	0x3e3aacae	0.18229935
32	0x3d9bf739	0.07615513
33	0xbe9603c4	-0.29299748
34	0x3eb7079c	0.35747993
35	0x3948fb32	0.00019167064
36	0x3dfdc4a3	0.12391021
37	0x3ea86318	0.32888103
38	0xbcc18cb8	-0.02362667
39	0xbe20a133	-0.15686493
40	0xbe059aeb	-0.13047378
41	0x3d268184	0.04065086
42	0xbdb86127	-0.09002905
43	0xbdbbdd11	-0.091730244
44	0x3e0af3ce	0.13569567
45	0xbd7ebb41	-0.062190298
46	0xbe17202b	-0.14758365
47	0xbdbd4763	-0.092421316
48	0x3e230d9e	0.15923163
49	0x3d135fd3	0.035980057
50	0xbddc2345	-0.10748915
51	0x3e078cfc	0.13237375
52	0x3df8e29a	0.12152596
53	0xbe18a71e	-0.149075
54	0xbdd6a143	-0.10479977
55	0xbcd563e0	-0.0260486
56	0x3dd147f4	0.10218802
57	0xbdec1c6e	-0.1152886
58	0x3d8ad114	0.0677816
59	0xbdecf964	-0.11571005
60	0xbd983171	-0.07431305
61	0xbcbd4d60	-0.023108184
62	0xbd6928ee	-0.0569238
63	0xbcfe6348	-0.0310532
64	0xbe01c9ca	-0.12674633
65	0x3e034f4a	0.12823215
66	0x3d1ad094	0.03779657
67	0xbd99e585	-0.075144805
68	0x3d5a82c4	0.053347364
69	0xbcfe7fc8	-0.03106679
70	0xbdf3d758	-0.11906308
71	0x3dfa5ca8	0.12224704
72	0xbd348706	-0.04407408
73	0xbdfecc6c	-0.12441334
74	0xbd58ba5c	-0.0529121
75	0xbdd74963	-0.10512044
76	0xbe0093b2	-0.12556341
77	0x3c458990	0.012056723
78	0x3d1f51fc	0.038896546
79	0xbdca616a	-0.098818615
80	0xbcda1860	-0.026622951
81	0xbae41e00	-0.001740396
82	0x3d486400	0.048923492
83	0xbdf2c78f	-0.11854469
84	0xbcc32788	-0.02382256
85	0x3c4915a0	0.012273222
86	0x3dee7cfc	0.11644933
87	0x3c8aa748	0.016925469
88	0xbd30c3e4	-0.043155566
89	0xbdc8f8aa	-0.09813054
90	0xbd4a0f0a	-0.04933075
91	0xbdd8aeb1	-0.10580195
92	0xbd169be0	-0.036769748
93	0xbce555e0	-0.02799505
94	0xbdf09764	-0.117476255
95	0xbdbc0235	-0.091801085
96	0x3dfd6db8	0.12374443
97	0x3d64edd4	0.055890873
98	0xbe06305e	-0.13104388
99	0xbd74548e	-0.05965095
100	0x3dda3920	0.10655427
101	0x3ceb6f78	0.028739676
102	0x3dc554d0	0.09635317
103	0x3e06b248	0.13153946
104	0xbe1637c9	-0.14669718
105	0xbcd882b8	-0.026429519
106	0xbb5776c0	-0.0032877177
107	0x3ce6ea98	0.028188035
108	0x3d30b304	0.043139473
109	0xbda80781	-0.08204556
110	0xb9c3aa00	-0.00037319958
111	0xbdb6a0fa	-0.089174226
112	0xbe1f7778	-0.15572917
113	0xbdb0c0ec	-0.08630547
114	0x3e0256d2	0.12728432
115	0x3d356d9c	0.044293985
116	0xbd2f90f8	-0.042862862
117	0x3e8691d7	0.26283142
118	0x3c1b7791	0.009488956
119	0xbe6d2ada	-0.23160878
120	0xbcebea88	-0.028798357
121	0x3e8927ab	0.26788077
122	0x3dc136c6	0.09434275
123	0x3ea54600	0.32279968
124	0x3e220bee	0.15824863
125	0xbac21050	-0.0014805887
126	0x3ee453ce	0.44595188
127	0x3f0ac477	0.5420603
128	0x3f04b0bf	0.51832193
129	0xbdb5b85f	-0.088730566
130	0x3ea680e6	0.32520217
131	0xbd6b3dfe	-0.057432167
132	0x3e9434b5	0.28946462
133	0xbe565b13	-0.2093318
134	0xbdf20415	-0.11817185
135	0x3e1355a7	0.14388143
136	0x3ca7c218	0.020478293
137	0x3f00ba7f	0.5028457
138	0x3c7559fe	0.014975069
139	0xbc35ce61	-0.011096568
140	0xbcca58cb	-0.024700543
141	0x3e4b2080	0.19836617
142	0x3ecf4e22	0.40489298
143	0x3e7144a1	0.23561336
144	0xbe5e50ba	-0.21710482
145	0xbeb822ef	-0.35964152
146	0x3c64d551	0.013966874
147	0xbdc93612	-0.09824766
148	0xbd9ae388	-0.075629294
149	0x3e57167b	0.2100467
150	0xbe721ce5	-0.23643835
151	0xbd94346d	-0.07236562
152	0x3e49b9f3	0.1969984
153	0xbdf31788	-0.118697226
154	0xbe7ea7ba	-0.2486867
155	0xbca2e720	-0.0198856
156	0xbdb594da	-0.08866282
157	0xbd8059b6	-0.06267111
158	0x3e9a5f1b	0.30150685
159	0x3ea5a784	0.32354367
160	0x3e478719	0.1948513
161	0x3bb6d85d	0.0055799917
162	0xbdd83906	-0.10557751
163	0x3e96a64c	0.2942375
164	0x3e4a21e4	0.19739491
165	0xbe0b1902	-0.13583758
166	0x3da8eaa1	0.08247877
167	0x3c913628	0.017726019
168	0x3c96fc5a	0.018430877
169	0x3e4b07af	0.1982715
170	0x3e5eff10	0.21776986
171	0xbe0f6fef	-0.14007543
172	0x3e89aeb7	0.2689111
173	0x3e10f9b6	0.14157757
174	0xbe088f67	-0.13335954
175	0x3eaeec50	0.34164667
176	0x3e70456b	0.23463981
177	0xbbc24fc4	-0.005929919
178	0x3dea6a1c	0.1144602
179	0x3e4a766c	0.19771737
180	0xbd979da2	-0.07403113
181	0x3e250852	0.16116455
182	0xbd6d481c	-0.057930097
183	0x3e0cca02	0.13748935
184	0x3d814533	0.06312027
185	0xbe5327ee	-0.206207
186	0x3dc5b630	0.0965389
187	0x3d2ac8c5	0.041695375
188	0x3d38ff14	0.045165136
189	0xbdd3731b	-0.10324689
190	0x3e965e54	0.29368842
191	0xbe073335	-0.13203128
192	0x3e962670	0.293262
193	0x3e2526e8	0.16128123
194	0x3e910c46	0.28329676
195	0xbcadbcc3	-0.021208173
196	0x3e82e345	0.25564018
197	0x3e3f26f2	0.186672
198	0x3eba5131	0.3639007
199	0x3c50d534	0.012746144
200	0xbddd2bd6	-0.10799377
201	0xbdde6ef0	-0.108610034
202	0x3ebe1473	0.37124977
203	0x3dd28c63	0.10280683
204	0x3e15d94b	0.14633672
205	0x3e6f094c	0.2334339
206	0xbc8c3b74	-0.017118193
207	0x3e83392d	0.2562956
208	0x3b1ee6c3	0.0024246431
209	0x3ed1e944	0.4099828
210	0xbe4f290f	-0.20230506
211	0x3e91a31f	0.28444764
212	0x3eb149d9	0.34626654
213	0xbdb2ad94	-0.08724514
214	0x3e219a83	0.15781598
215	0xbe52f8ae	-0.20602676
216	0xbe2dc783	-0.16970639
217	0x3e46ef1b	0.19427149
218	0x3e51a286	0.20472154
219	0xbdd0ddc6	-0.1019855
220	0xbd63c038	-0.055603236
221	0xbe758fb2	-0.23980597
222	0x3ea38bc0	0.31942558
223	0x3d38ce76	0.04511877
224	0xbe356858	-0.17715585
225	0x3e642aae	0.22281906
226	0x3e15c1ff	0.14624785
227	0x3ddcbc5c	0.10778114
228	0xbe6a4cc7	-0.2288085
229	0x3ebcbcdd	0.3686284
230	0xbe505a23	-0.20346884
231	0x3e8e2897	0.27765343
232	0x3eebdef5	0.4606854
233	0x3e8b8371	0.2724872
234	0xbd9ecf24	-0.07754353
235	0x3d40746c	0.04698603
236	0xbe67b5be	-0.22627923
237	0xbdc976f4	-0.09837142
238	0xbe37c822	-0.17947438
239	0x3ecd980e	0.4015507
240	0xbe86038d	-0.26174584
241	0xbe1fb525	-0.15596445
242	0xbda4982b	-0.08036836
243	0xbe8dc24b	-0.27687296
244	0x3e19d1f3	0.15021496
245	0xbe0f1ead	-0.13976546
246	0xbe8173d5	-0.25283685
247	0xbe227327	-0.1586424
248	0xbe8f835e	-0.28029913
249	0x3eb69295	0.35658708
250	0xbc8b91be	-0.017037269
251	0xbdc5c081	-0.09655858
252	0xbe256c92	-0.16154698
253	0xbc807ace	-0.015683558
254	0xbea4a449	-0.3215659
255	0x3e8e21cc	0.2776016

l1.bias f4 [8]
0	0x3eab835f	0.33498666
1	0xbdf4a5a9	-0.1194566
2	0xbe1a4d42	-0.15068534
3	0x3e909754	0.28240454
4	0x3dc809e3	0.09767511
5	0x3e1c3527	0.15254651
6	0x3ec30b36	0.3809449
7	0x3e5ba147	0.21448241

l2.weight f4 [16, 8]
0	0x3ec9d5a4	0.39420807
1	0xbe8ec1c6	-0.27882212
2	0xbe8b92a6	-0.2726032
3	0x3f0d8c0d	0.55291826
4	0xbd1b2240	-0.03787446
5	0x3f10c53b	0.5655095
6	0xbec221dd	-0.3791646
7	0x3e5db2d5	0.2165025
8	0x3d0a956f	0.033833917
9	0x3ddb4e2c	0.107082695
10	0x3d6b35e8	0.057424456
11	0x3f2ad40d	0.66729814
12	0x3df7b2b3	0.12094631
13	0xbca2d81c	-0.01987844
14	0xbe82ff77	-0.2558553
15	0xbe51feb4	-0.20507318
16	0x3e561939	0.20908059
17	0x3e9a9421	0.30191138
18	0x3ce79c10	0.028272659
19	0x3f45a914	0.7721112
20	0xbe7573ef	-0.23970006
21	0x3e82be6e	0.2553591
22	0xbe32b125	-0.17450388
23	0xbe021a0d	-0.1270525
24	0xbec01f23	-0.37523755
25	0x3e94ac28	0.29037595
26	0x3dd89f98	0.10577315
27	0x3e4c2a92	0.19938114
28	0xbea89bc0	-0.32931328
29	0xbcdad13b	-0.026711097
30	0x3f3b3914	0.7313397
31	0x3d1fcc94	0.03901346
32	0x3e9d228c	0.3069042
33	0x3d8916e8	0.06693822
34	0x3c3629e0	0.011118382
35	0xbdd327b2	-0.10310306
36	0x3ed7fd7a	0.42185575
37	0x3f1d6e61	0.6149655
38	0xbe93a8a7	-0.2883961
39	0x3ee0d5ba	0.4391306
40	0x3e965711	0.293633
41	0xbe88b696	-0.26701802
42	0xbe6d5daa	-0.23180261
43	0x3f0ef1ff	0.55838007
44	0xbe51fd24	-0.20506722
45	0xbe46917e	-0.19391438
46	0xbd7d9f08	-0.061919242
47	0x3eab8916	0.33503026
48	0x3da1f4ac	0.079079956
49	0x3db90c94	0.09035602
50	0xbc961f30	-0.018325418
51	0xbe36d366	-0.1785408
52	0x3dbbb928	0.09166175
53	0x3dc67748	0.0969072
54	0x3dac2038	0.08404583
55	0xbe8c9fd7	-0.27465698
56	0x3ec603d3	0.38674793
57	0x3e1a18c9	0.15048517
58	0xbea30f07	-0.31847402
59	0xbec9f3ab	-0.39443716
60	0x3e8c8ddf	0.2745199
61	0x3e969d3d	0.29416838
62	0xbcad9f72	-0.021194194
63	0x3b867474	0.0041032378
64	0x3f367dde	0.7128581
65	0xbe0ef327	-0.13959943
66	0x3e3b8a3a	0.18314448
67	0x3e92569d	0.28581706
68	0x3e0e82b5	0.13917048
69	0xbcac0dff	-0.021002768
70	0x3f2fad0b	0.6862342
71	0x3eeb327c	0.45936954
72	0x3f14cb1c	0.5812242
73	0x3e826d1f	0.25473878
74	0x3e98f157	0.29871628
75	0x3f007f25	0.5019401
76	0x3e31df4d	0.17370339
77	0xbeb871fa	-0.36024457
78	0xbe9bc9d2	-0.30427414
79	0x3d6e1c97	0.058132734
80	0x3ed85069	0.42248848
81	0x3cbd9ad0	0.02314511
82	0x3eb02199	0.34400633
83	0xbeff87d0	-0.49908304
84	0x3ea40270	0.3203311
85	0x3f13bcf0	0.5771017
86	0xbde25860	-0.110520124
87	0x3ef9968d	0.48747674
88	0x3dbf2f42	0.093351856
89	0x3e91dd6f	0.28489253
90	0x3c7c6760	0.015405506
91	0x3f44c275	0.7685922
92	0x3efed382	0.49770743
93	0x3eae621f	0.34059235
94	0xbf1aaad7	-0.6041693
95	0x3f199171	0.5998755
96	0xbf12768f	-0.57212156
97	0x3e87fcfe	0.26560205
98	0x3db69cd0	0.08916628
99	0x3e25766c	0.16158456
100	0x3d134607	0.035955455
101	0xbe7344c7	-0.23756705
102	0x3e2f9d49	0.17149843
103	0xbd083237	-0.033251014
104	0x3e04229f	0.12903832
105	0xbbe5673e	-0.007000833
106	0x3e7cd5a2	0.2469087
107	0x3ebaac89	0.3645976
108	0x3da66eb9	0.081265874
109	0x3f19ee47	0.6012921
110	0xbeea305b	-0.45740017
111	0x3f238234	0.6387055
112	0x3e490d74	0.19634038
113	0x3e9d4841	0.30719188
114	0x3e349102	0.17633441
115	0x3f330164	0.69923997
116	0xbe3ee233	-0.18640976
117	0xbed55028	-0.41662717
118	0xbe5c7fa5	-0.21533068
119	0x3e89319d	0.26795664
120	0xbdbf1870	-0.09330833
121	0x3e20423e	0.1565027
122	0x3e170196	0.14746699
123	0x3cb0dfdd	0.021591121
124	0xbea4331f	-0.32070252
125	0x3c119ab7	0.008886985
126	0x3f0f64bf	0.560131
127	0x3e046336	0.12928471

l2.bias f4 [16]
0	0x3ebce6a6	0.3689472
1	0x3e8962d7	0.2683322
2	0x3e01be04	0.12670141
3	0x3f0957ec	0.53649783
4	0xbe1d9daa	-0.15392175
5	0x3c87a863	0.016559785
6	0xbe98d66a	-0.29851085
7	0x3d0406d0	0.03223306
8	0x3e8a4f32	0.27013546
9	0x3e969707	0.294121
10	0x3de2d9c7	0.11076694
11	0x3ef8ea86	0.48616427
12	0x3f084b29	0.53239685
13	0x3eaf9a37	0.34297344
14	0x3f1642fb	0.58695954
15	0x3d912d84	0.070887595

l3.weight f4 [16, 16]
0	0x3e37c740	0.17947102
1	0x3f0509d1	0.51968104
2	0x3eb4da6c	0.35322893
3	0x3f310447	0.6914715
4	0xbebcf79d	-0.36907664
5	0x3f11d77e	0.5696944
6	0x3cf496d0	0.02985707
7	0xbe4d3d5f	-0.20042942
8	0x3f1894cf	0.59602064
9	0x3eb8d11a	0.36097032
10	0xbee83767	-0.4535477
11	0x3eb61c36	0.35568398
12	0x3eacc9d4	0.33747733
13	0xbd6aa599	-0.057286832
14	0x3e2bfc30	0.1679542
15	0x3da345e9	0.07972319
16	0x3ecb4a9b	0.39705357
17	0xbdaeb47a	-0.08530517
18	0xbde2233d	-0.110418774
19	0xbe452b5e	-0.19254825
20	0x3eee91cd	0.46595612
21	0x3e5f1453	0.21785097
22	0xbd1b3cc8	-0.037899762
23	0x3edba2c2	0.42897612
24	0x3eb332cf	0.349997
25	0xbdbb30e2	-0.09140183
26	0x3f12196a	0.5707003
27	0x3edb7184	0.42860043
28	0xbea2a303	-0.31764993
29	0x3e99e929	0.300607
30	0xbe281c91	-0.16417147
31	0xbe3245e2	-0.1740947
32	0x3cff0c25	0.03113372
33	0x3c2a786c	0.010404687
34	0x3d8df06e	0.06930624
35	0xbcd820a0	-0.026382744
36	0x3e419953	0.18906145
37	0xbd765615	-0.060140688
38	0x3e61fab2	0.22068289
39	0x3ddbcb4a	0.10732134
40	0xbd1838fc	-0.03716372
41	0xbdc58ea0	-0.09646344
42	0xbdd8b3f2	-0.10581197
43	0xbd6a7fe8	-0.057250887
44	0xbe7fe16e	-0.24988338
45	0x3cd15eff	0.025557993
46	0xbe07b7c4	-0.13253695
47	0xbe36cd14	-0.17851669
48	0xbe61e8a3	-0.220614
49	0x3c7a341a	0.015271211
50	0x3d1524d8	0.03641209
51	0x3e12395c	0.14279693
52	0xbd3ed759	-0.04659209
53	0xbbab5540	-0.0052286685
54	0x3e469c0c	0.19395465
55	0xbd15b738	-0.036551684
56	0xb9761a61	-0.00023470215
57	0xbdaa5378	-0.08316702
58	0x3e0b4b09	0.13602842
59	0x3bee30a1	0.0072689806
60	0xbdec6085	-0.11541847
61	0x3ddbddc4	0.10735658
62	0xbd087a6d	-0.03331988
63	0xb9a7a0df	-0.0003197258
64	0x3f067526	0.52522504
65	0x3eeb9773	0.46013984
66	0x3f1f94b6	0.6233629
67	0xbe71f09e	-0.23626944
68	0xbe16bc6c	-0.14720315
69	0x3f247b88	0.64250994
70	0xbe6f0a92	-0.23343876
71	0xbe017490	-0.12642121
72	0x3db4dfdf	0.088317625
73	0x3f094dfe	0.5363463
74	0xbe6b8544	-0.23000056
75	0x3f1880fc	0.59571815
76	0xbe9a513b	-0.301401
77	0x3e994aa8	0.2993977
78	0x3f005a03	0.50137347
79	0xbd57c759	-0.052680347
80	0x3cd27080	0.02568841
81	0x3e602604	0.21889502
82	0xbd954650	-0.07288802
83	0x3e6eac18	0.23307836
84	0x3e1f9c56	0.15586981
85	0xbce9bac0	-0.028531432
86	0xbdf370ec	-0.118867725
87	0xbdc3ed0c	-0.095666975
88	0xbe01de10	-0.12682366
89	0xbdbe8324	-0.09302357
90	0xbd765bb0	-0.060146034
91	0xbe6f96c6	-0.23397359
92	0xbe0a2caa	-0.134936
93	0xbe5074dc	-0.20357078
94	0x3e1e9594	0.15486747
95	0xbd0eaf70	-0.03483528
96	0xbcfeb200	-0.031090736
97	0x3df7f430	0.12107122
98	0xbe606b6e	-0.21915981
99	0xbd76458c	-0.06012492
100	0xbe73dca2	-0.23814633
101	0x3d8ad190	0.06778252
102	0xbe6c89c6	-0.23099431
103	0x3c1f2045	0.0097122835
104	0xbd4c702e	-0.04991167
105	0x3d978848	0.073990405
106	0xbd809863	-0.062790655
107	0x3df02639	0.117260404
108	0x3e12c94b	0.143346
109	0x3e03d6d1	0.12874915
110	0xbe6dc8ee	-0.2322118
111	0x3e309372	0.17243746
112	0xbe833dd0	-0.25633097
113	0x3da9ab45	0.0828462
114	0x3e1b3d4a	0.15160099
115	0xbe60d4d2	-0.21956185
116	0x3dc5d894	0.096604496
117	0x3e52f307	0.2060052
118	0x3dbf5f54	0.09344354
119	0xbdf79bfa	-0.12090297
120	0xbd8956df	-0.067060225
121	0xbe3475eb	-0.17623107
122	0xbde19ace	-0.11015855
123	0x3c785658	0.015157305
124	0x3e535752	0.20638779
125	0x3e37dc0f	0.1795504
126	0x3c8ca1c7	0.017166985
127	0xbe015e32	-0.12633589
128	0xbe1bce15	-0.15215333
129	0xbe39cc91	-0.18144442
130	0xbe0594d7	-0.13045059
131	0x3f0d7940	0.5526314
132	0x3d08cc1e	0.033397786
133	0x3e8dea1b	0.2771767
134	0x3ccce9d0	0.025013834
135	0xbd71fb6c	-0.059077665
136	0x3f12e78a	0.5738455
137	0xbe6d1095	-0.23150857
138	0xbd8b2bcf	-0.06795465
139	0xbe7e1263	-0.24811701
140	0x3e8ad343	0.27114305
141	0xbe2ffc25	-0.1718603
142	0x3e935db4	0.28782427
143	0x3edb5b73	0.42843208
144	0x3e0b9262	0.1363006
145	0xbeb3c83d	-0.35113707
146	0x3dc09fcc	0.09405479
147	0xbe646eec	-0.22307938
148	0x3e5960b8	0.21228302
149	0xbefd7bbf	-0.49508473
150	0xbde71cfc	-0.11284825
151	0x3efd7217	0.49501106
152	0x3e284e60	0.16436148
153	0xbd0057eb	-0.031333845
154	0x3ecfbf07	0.4057543
155	0x3e986063	0.29761037
156	0xbebeefc0	-0.3729229
157	0x3e199169	0.14996876
158	0xbe524805	-0.20535286
159	0xbe9c753d	-0.30558196
160	0x3e545895	0.20736916
161	0x3cf1ebe6	0.02953143
162	0x3d8ecd16	0.06972711
163	0x3c6d7efe	0.014495609
164	0x3e00e983	0.12589078
165	0xbe5e4b22	-0.21708348
166	0xbe52086e	-0.20511028
167	0xbda4db67	-0.0804966
168	0x3d289e25	0.041166443
169	0xbe064206	-0.13111123
170	0xbdf7d789	-0.12101657
171	0xbe0b908b	-0.13629358
172	0x3dbdb859	0.09263677
173	0xbd7ce0fe	-0.061738007
174	0xbe0a15fc	-0.13484949
175	0x3d33e951	0.04392368
176	0x3e3f29bc	0.18668264
177	0x3e240f75	0.16021521
178	0x3ec5970e	0.38591808
179	0x3e72c5e6	0.23708305
180	0x3ddaa420	0.106758356
181	0x3ef65851	0.48114255
182	0xbe0b76e6	-0.13619575
183	0xbdbd0d0e	-0.092310056
184	0x3ed30954	0.41218054
185	0x3dfabfa0	0.12243581
186	0xbd7dbab5	-0.061945636
187	0x3e00e3b7	0.12586866
188	0x3cd77158	0.026299164
189	0x3e91697b	0.28400788
190	0x3eb6bb0e	0.35689586
191	0x3e0faf91	0.14031817
192	0xbe598881	-0.21243478
193	0x3d07cca8	0.03315416
194	0x3e4e8848	0.20169175
195	0xbdc7f433	-0.09763374
196	0xbd96361c	-0.07334539
197	0xbbaa5c40	-0.0051989853
198	0xbe2acbf0	-0.16679358
199	0x3dfc237f	0.12311458
200	0x3c6abbcb	0.014327
201	0x3db5430c	0.08850679
202	0x3deca1e4	0.11554316
203	0xbe5c05be	-0.21486565
204	0xbe108d7b	-0.1411647
205	0xbe1a206b	-0.15051429
206	0xbe8e14c1	-0.2775021
207	0x3e1413fc	0.14460748
208	0xbd991eec	-0.07476601
209	0x3db7fbd1	0.08983577
210	0xbd9381bc	-0.07202479
211	0x3e8f1046	0.27942103
212	0xbddb19cb	-0.10698279
213	0x3dcf5c62	0.101250425
214	0x3e7927da	0.24331608
215	0xbe5958a6	-0.21225223
216	0x3ef0a1e0	0.469985
217	0x3ea9ce4b	0.33165202
218	0xbd517e7e	-0.051146023
219	0xbe295ca1	-0.16539241
220	0x3e90a589	0.28251293
221	0xbe104ab0	-0.14090991
222	0x3ed093ab	0.40737662
223	0xbd9bdcf1	-0.076105006
224	0x3ee59f3c	0.4484805
225	0x3eeb8258	0.45997882
226	0x3ef7b536	0.4838044
227	0xbeb3fb7e	-0.3515281
228	0x3d9eefd6	0.07760589
229	0x3ee6b6a7	0.45061228
230	0xbe6cb720	-0.23116732
231	0xbb81ff92	-0.003967234
232	0x3e67b703	0.22628407
233	0x3f2c7c76	0.6737741
234	0x3edd7b12	0.43257958
235	0x3ef727a4	0.4827243
236	0xbd810985	-0.06300644
237	0x3ea7ec95	0.32797685
238	0x3e54c5b7	0.20778547
239	0xbe8ffe7c	-0.28123844
240	0x3e8165f3	0.25273094
241	0xbeb61b8a	-0.35567886
242	0x3c800d92	0.01563147
243	0x3e8a23c3	0.2698041
244	0x3e0b3696	0.13595042
245	0xbe897d08	-0.26853204
246	0xbe625d28	-0.22105849
247	0x3d52853a	0.051396586
248	0x3ef18f56	0.4717967
249	0xbe8014c6	-0.2501585
250	0x3ed6b495	0.41934648
251	0xbd2c8f0c	-0.042128608
252	0x3ee53643	0.4476796
253	0x3b2bc9ff	0.0026212928
254	0xbe8facb0	-0.28061438
255	0x3efc05eb	0.49223265

l3.bias f4 [16]
0	0x3ec64357	0.3872325
1	0x3e20f4de	0.1571841
2	0xbe845070	-0.2584262
3	0xbe467b40	-0.19382954
4	0x3e7c6a3d	0.24649902
5	0xbe6578b0	-0.2240932
6	0xbd83da0f	-0.06438076
7	0xbd859963	-0.06523397
8	0x3eb47490	0.3524518
9	0xbe24abee	-0.16081211
10	0xbe2b7c89	-0.16746725
11	0x3dc71396	0.097205326
12	0x3d94be01	0.07262803
13	0x3e8fd5f7	0.2809293
14	0x3e9fb9a5	0.31196323
15	0x3cac255b	0.021013906

l4.weight f4 [8, 16]
0	0x3eb6c928	0.35700345
1	0xbe4ed3ae	-0.20197937
2	0x3cbc5f30	0.022994608
3	0xbe7863bc	-0.24256796
4	0xbe9ef274	-0.31044352
5	0x3dc36284	0.09540275
6	0xbe7a5403	-0.2444611
7	0x3e40a1f2	0.18811777
8	0x3f031d0a	0.51216185
9	0xbe3d59b5	-0.18491252
10	0xbe3fd7bf	-0.18734644
11	0x3ed82eb1	0.42223123
12	0xbe1c277e	-0.1524944
13	0x3dca23f0	0.09870136
14	0xbe9b1bd4	-0.3029467
15	0x3e8e7593	0.27824077
16	0xbe766eb1	-0.24065663
17	0x3ed2d0b4	0.41174853
18	0x3e8084db	0.2510136
19	0x3d0076a1	0.031363133
20	0xbdce52e9	-0.100744076
21	0xbe0e44d6	-0.13893446
22	0x3e79f365	0.24409254
23	0x3e3a9d76	0.18224129
24	0xbeaf39fc	-0.34223926
25	0x3ef9c7da	0.48785287
26	0x3dab79a8	0.083728135
27	0x3da90d34	0.082544714
28	0x3e0960aa	0.1341578
29	0xbe32c331	-0.17457272
30	0x3e3424a5	0.17592104
31	0x3ee73fcc	0.4516586
32	0x3e17bd3f	0.14818285
33	0xbe658592	-0.22414234
34	0x3cc98060	0.024597347
35	0xbdb1873c	-0.08668372
36	0x3d4a0e33	0.049329948
37	0xbda25ac0	-0.079274654
38	0xbdb539a0	-0.08848882
39	0x3e026852	0.12735108
40	0x3e8c3034	0.27380526
41	0xbe0795af	-0.13240694
42	0x3e8660ba	0.26245672
43	0xbced4f79	-0.02896856
44	0x3dadebf8	0.08492273
45	0x3ed04d72	0.40684086
46	0xbe61593b	-0.22006695
47	0x3e4cc87d	0.19998355
48	0xbed44f98	-0.41466975
49	0x3eeedfca	0.46655113
50	0xbe5a147f	-0.21296881
51	0xbddf97f0	-0.10917652
52	0xbd5e628e	-0.054293208
53	0xbe6ca5c4	-0.2311011
54	0xbe6c123b	-0.2305383
55	0xbd8c9487	-0.06864267
56	0xbe2361db	-0.15955298
57	0x3eae48a0	0.34039783
58	0xbd406e7e	-0.046980374
59	0x3da38cfc	0.07985875
60	0xbe6ad100	-0.2293129
61	0xbef3c91f	-0.4761438
62	0x3e8f8cb1	0.28037027
63	0x3f03d3cc	0.5149505
64	0x3e4c4dba	0.19951525
65	0x3ea55740	0.3229313
66	0x3d1f7097	0.038925733
67	0xbe06b761	-0.13155891
68	0x3f14c9a0	0.58120155
69	0xbcae3eb0	-0.021270126
70	0x3cecd6c4	0.028911002
71	0xbd4e57e7	-0.0503768
72	0xbe463903	-0.19357686
73	0xbede6de5	-0.43443218
74	0xbe17d85a	-0.14828625
75	0x3eb0435e	0.34426397
76	0x3d8c39e0	0.06846976
77	0xbd925722	-0.071455255
78	0x3f133b6d	0.5751255
79	0xbedd8b26	-0.43270224
80	0x3eb09e2b	0.34495673
81	0xbe8df620	-0.2772684
82	0x3d9e0d1c	0.07717344
83	0xbe2ba3e4	-0.16761738
84	0xbe879d95	-0.26487413
85	0xbcc223c0	-0.023698688
86	0xbe24808a	-0.16064659
87	0xbde1cce4	-0.11025408
88	0x3d9e4c8f	0.07729446
89	0xbeb7fcdb	-0.359351
90	0xbd5dda35	-0.054163177
91	0x3d3b4f13	0.045729708
92	0x3e4eee86	0.20208177
93	0x3ebe9dab	0.37229666
94	0xbc9214c4	-0.017832167
95	0x3e99ee90	0.3006482
96	0x3f023cee	0.5087422
97	0xbc964963	-0.01834554
98	0x3d1b74ab	0.03795306
99	0x3e0664b8	0.13124359
100	0x3efb1008	0.49035668
101	0xbdf1cb0c	-0.11806306
102	0x3dc572cc	0.096410364
103	0xbc924ec7	-0.01785983
104	0x3ebe6211	0.37184194
105	0xbf1c13ff	-0.6096801
106	0xbe3d09c8	-0.18460763
107	0x3ed30c0a	0.41220123
108	0x3d852500	0.06501198
109	0x3e55eb41	0.20890523
110	0x3ddedbf6	0.10881798
111	0x3dfeb17a	0.12436195
112	0x3e3b2bc4	0.18278414
113	0xbda31f12	-0.079649106
114	0x3cceb3b0	0.025232166
115	0x3de94e40	0.11391878
116	0xbd1465dc	-0.036229953
117	0xbe59be1a	-0.21263924
118	0xbe2d2aec	-0.16910905
119	0xbe474cbc	-0.19462866
120	0xbe580be2	-0.21098283
121	0xbe330684	-0.17482954
122	0xbde528dc	-0.11189434
123	0xbe3b2d02	-0.18278888
124	0xbdfe746c	-0.124245495
125	0xbe360e78	-0.17778957
126	0x3d1717f6	0.036888085
127	0x3db85358	0.090002716

l4.bias f4 [8]
0	0x3ea1d108	0.3160479
1	0xbd649588	-0.055806667
2	0xbbd0957c	-0.006365476
3	0x3e2e0d10	0.1699717
4	0x3e828c53	0.25497684
5	0xbdb600bd	-0.088868596
6	0x3df85474	0.12125483
7	0xbe0dae5a	-0.13836041

l5.weight f4 [3, 8]
0	0x3eff1a12	0.49824578
1	0xbeb1dd2e	-0.3473906
2	0x3ed89dfb	0.4230803
3	0xbef98718	-0.4873588
4	0xbee7e467	-0.45291445
5	0x3f1ccc8f	0.6124963
6	0x3eb34da6	0.3502018
7	0x3e07862c	0.13234776
8	0xbf185661	-0.59506804
9	0x3e61b2a5	0.22040804
10	0x3c973362	0.018457118
11	0x3ee91c63	0.4552947
12	0x3d39e9b3	0.04538889
13	0xbeab0448	-0.33401704
14	0xbe643fcd	-0.22289963
15	0xbc94d1cb	-0.018166443
16	0xbf1fed35	-0.62471324
17	0xbf155c5e	-0.58344066
18	0xbf1fb327	-0.6238274
19	0xbef58c1e	-0.47958463
20	0x3ec696ce	0.3878693
21	0xbf0176bb	-0.50571793
22	0x3edab957	0.42719528
23	0xbda09e00	-0.07842636

l5.bias f4 [3]
0	0xbe3e784b	-0.18600576
1	0xbe863da4	-0.26218903
2	0x3e0f6744	0.14004236
